计算机视觉实践-实验3/model_best.pth (torch, 34799 bytes, 5 tensors)

conv1.weight f4 [64, 1, 9, 9]
000000 61 0d 69 3c 1d ff 84 3d 11 83 ac bd b5 9a 99 bd
       0.014224381 0.064939715 -0.084234364 -0.07500211
000010 6f ee 15 bd aa 43 d2 3c 11 2c 85 bc 03 36 a7 3d
       -0.03660434 0.02566703 -0.016256364 0.08164599
000020 40 d2 33 bb 45 a6 e7 3c 40 dc 28 bd 0e 11 b6 bc
       -0.0027438551 0.028277526 -0.04122567 -0.02222493
000030 ff 11 d3 bd d7 05 90 bd 8c f7 65 bd c1 e9 9c bc
       -0.10306167 -0.07032364 -0.056144282 -0.019154431
000040 23 e0 cd 3c 8e a1 74 3d bc d2 b6 bd 2b e7 82 bd
       0.02513129 0.059724383 -0.08926913 -0.06391748
000050 f4 55 19 3d ef 14 ca 3d d2 7d 58 bc d8 e6 9e 3d
       0.037435487 0.09867274 -0.013213592 0.07758874
000060 06 4c 27 bd 13 c7 49 bc ac 64 ac 3d ab 92 d7 bd
       -0.040843986 -0.012315529 0.08417639 -0.105260216
000070 20 3c 93 bd 3a d7 69 bc 75 fa 85 bc f6 87 05 3e
       -0.07189202 -0.014272505 -0.016354779 0.13040146
000080 07 1b 50 bd fd f6 5b bd ca af b3 bd b7 2a e1 bd
       -0.050807025 -0.053702343 -0.087737635 -0.10994475
000090 8c 54 3a bd 91 f4 e8 3d 90 56 a0 3d 76 58 bd 3d
       -0.045490786 0.11374772 0.078290105 0.09245388
0000a0 07 06 59 3d 31 ae 80 bc 12 92 33 3d 19 1b ab bd
       0.052984264 -0.015708061 0.043840475 -0.08354778
0000b0 02 33 67 bd 26 70 36 bd 87 99 a2 3d 7b b5 a6 3d
       -0.05644513 -0.044540547 0.07939439 0.081400834
0000c0 14 33 d1 bc f0 2d ee 3c 62 7e cc 3d 3d a0 ff 3d
       -0.025537051 0.02907464 0.09985043 0.12481735
0000d0 3b ea 62 3d 6d 57 01 3d 99 54 ab 3d c3 c2 7c bd
       0.05539916 0.031577516 0.08365745 -0.061709177
0000e0 bd 42 de 3c 64 d6 9d bd d8 83 7d bd f7 fd 3c bd
       0.027131433 -0.077069074 -0.061893314 -0.046140637
0000f0 fc 81 4e 3d c7 d1 39 3d d8 19 6b bd dc 0f 33 3d
       0.05041693 0.045366075 -0.057397693 0.043716297
000100 23 f4 84 3d 36 1d 15 bc 47 d0 18 3c b6 f2 0b 3d
       0.06491878 -0.009101203 0.009327001 0.034167014
000110 32 20 95 3d b4 00 d0 3d 1e 87 b4 bd ac 67 0e bd
       0.072815314 0.10156384 -0.08814834 -0.034766838
000120 96 e9 68 3d 6b 51 ca 3d 6f da d4 3d 75 53 d6 3d
       0.05686339 0.098788105 0.103932254 0.10465137
000130 0e 9f f9 3c 40 d7 bf bd bd 2c 99 3b 9e bd 93 bd
       0.030471351 -0.093672276 0.0046745227 -0.07213901
000140 74 de c9 bd a3 68 da 3d ab 3d b9 3d 41 c6 cf bd
       -0.09856883 0.10664489 0.09044965 -0.10145236
000150 04 87 00 3d da d4 05 bc 10 36 71 bc d2 0d 4a bd
       0.03137876 -0.008168424 -0.014722362 -0.049329586
000160 bc 70 2e 3d 35 08 80 bd 23 b9 45 3d 03 09 81 3d
       0.04258798 -0.06251565 0.048272263 0.06300547
000170 be 50 bb 3d a6 b8 63 3d bd a5 c4 bd dd 86 87 bd
       0.0914626 0.055596016 -0.096019246 -0.0661752
000180 1d 64 6e 3d 7f 18 be 3c 00 e4 ab bd f5 07 5f bd
       0.058200944 0.02320504 -0.08393097 -0.054450948
000190 7d 06 eb 3d 8a 88 bd 3d c0 9b db bc e9 9b bc bb
       0.11475847 0.092545584 -0.026807666 -0.0057558906
0001a0 ea 74 bd bd 8c ec c9 3b cf 03 a5 bd f5 85 a5 bd
       -0.09250815 0.006162232 -0.08057367 -0.08082191
0001b0 38 31 12 3c 6a c9 08 3d ec fc 9f bc 0c 78 c9 3d
       0.0089228675 0.03339521 -0.019529782 0.0983735
0001c0 ab 2e 06 bd 89 02 03 3e 5f 57 c5 3d cd 3f a6 bd
       -0.03275935 0.12793936 0.09635805 -0.08117638
0001d0 38 d3 70 bc a1 58 d1 3c 20 0c 1e 3d 1f 34 6f 3d
       -0.014698796 0.025554957 0.038585782 0.058399316
0001e0 15 38 aa 3d 7e bc 4a 3d 63 96 8d bc f0 e6 a8 3d
       0.08311478 0.049496166 -0.017283624 0.08247173
0001f0 51 ff ae bd c5 0d 39 bd 0c 68 5c bc 7c a7 1d bd
       -0.085447915 -0.045179147 -0.013452541 -0.038489804
000200 a1 87 58 bc f7 fd 6a bd dd 05 65 3c 2b 37 61 3d
       -0.01321593 -0.057371106 0.013978449 0.054984253
000210 6c 6d 46 bd 5c 5d 11 3c e1 11 c0 3d 44 08 92 b9
       -0.048444197 0.008872356 0.0937841 -0.00027853448
000220 ba f9 6d 3c 44 03 34 3c 3d 30 4e 3d fe 17 d1 3d
       0.0145248715 0.010987107 0.050338972 0.10209654
000230 96 33 05 3e 41 86 b6 3d 26 31 ed 3d 9b 03 3a 3b
       0.1300796 0.08912326 0.1158164 0.0028383497
000240 08 eb be bd 85 de 40 bd 5c 39 b5 3d e0 ae 91 3c
       -0.093221724 -0.04708721 0.08848831 0.017783582
000250 3e e6 0b bd cc 8b 93 bd d7 cd c4 bd cc d3 c0 bd
       -0.034155123 -0.072043985 -0.09609573 -0.09415397
000260 02 83 af bc 86 c2 8b 3d 19 81 85 3d 52 bf c5 bd
       -0.021424774 0.06824212 0.06518764 -0.09655632
000270 70 a8 ac 3d 9c b3 8f bd 09 d2 74 bc 2f cc 26 bd
       0.084305644 -0.0701668 -0.014942654 -0.04072207
000280 45 86 c4 bc 5e fe b5 bc 8b 33 cd bd 07 ef c3 bd
       -0.023989806 -0.022216018 -0.10019597 -0.09567075
000290 4a d2 5b bc ce 4f d8 3b 86 9f 2e bd 1f 00 48 3d
       -0.013416836 0.0066013103 -0.042632602 0.04882824
0002a0 6a 14 c6 bd 4f 16 c4 3a cb fe dd 3d 22 a0 36 bd
       -0.096718624 0.0014960262 0.108396135 -0.04458631
0002b0 12 d4 d1 3d 9a d9 3e 3d ce ac bd bd c8 38 a4 3d
       0.10245527 0.04659424 -0.092614755 0.08018643
0002c0 09 3d 8d bb e2 54 38 bd f1 79 ca 3d 2c c8 9f bd
       -0.0043102545 -0.045002826 0.0988654 -0.07801852
0002d0 f8 81 74 3c aa f0 94 bc a0 e0 b6 3d ca 8d 2e 3d
       0.014923565 -0.018181164 0.089295626 0.04261569
0002e0 29 cb 88 3d d6 da 4e 3d b4 be a2 bc 1e 67 39 bc
       0.06679375 0.050501667 -0.019866325 -0.011316089
0002f0 fa 7d 9e bd 43 9c 85 3d e1 fa c3 3d 4e a2 b5 3d
       -0.07738872 0.06523945 0.09569336 0.08868848
000300 b2 90 82 bd 72 f9 ae 3c 3a a6 84 bd 59 17 58 bd
       -0.06375255 0.02135918 -0.06477018 -0.05275664
000310 f5 2f 53 bd c0 df 5b 3d db 28 82 bd aa 62 1d 3b
       -0.051559407 0.05368018 -0.06355449 0.0024015107
000320 76 e2 70 3c 26 14 ac 3d 0b 70 8d bd 8e c3 83 bd
       0.01470243 0.084022805 -0.06906136 -0.064337835
000330 65 aa 71 bd bb c6 b3 3d 2f f7 dd bc a9 a4 c5 3d
       -0.05900039 0.08778139 -0.027095405 0.09650547
000340 ee cb 36 3d 4e 1c be 3c 62 90 31 3c fb ad ea bb
       0.044628076 0.023206856 0.010837646 -0.0071618534
000350 27 b1 d6 3c ae 1e 9f bc 63 db 19 3c 8c e6 dd 3c
       0.02620752 -0.019423809 0.009390685 0.027087472
000360 b5 31 b1 bd 83 52 67 bd 62 23 c4 3d a3 f6 a7 bd
       -0.08652059 -0.056475174 0.09577061 -0.08201339
000370 0d 97 58 3b 39 93 f3 3d af 40 32 3d 48 53 37 3c
       0.0033049018 0.11893315 0.04351872 0.011189289
000380 3d 1c af bd 6c a9 65 3d ac ac 9d bd dd 20 d0 bc
       -0.08550308 0.056069776 -0.0769895 -0.025406295
000390 1d 9b f1 bc 32 75 ba bb c7 f6 26 3c cd 05 c5 3d
       -0.02949291 -0.0056902403 0.010190672 0.09620247
0003a0 57 aa be 3c 24 04 e4 3d 3a 2a 8e 3d 86 06 8b bd
       0.023274584 0.11133602 0.06941648 -0.067883536
0003b0 be fc 64 3d 00 7c 91 bd 17 1a 16 bd e9 25 2b 3d
       0.055905096 -0.07103729 -0.036645975 0.0417842
0003c0 c0 40 2d 3d e8 3f c0 3d 25 e5 bd bc 6e 87 26 3d
       0.04229808 0.09387189 -0.023180554 0.0406565
0003d0 b1 96 df 3d 4b 22 5f bd f0 44 0a 3e 50 28 6b bd
       0.10917414 -0.054476064 0.1350286 -0.057411492
0003e0 b1 9b 35 3d b6 52 da 3c b7 e1 62 bc c2 d3 4d 3d
       0.044337932 0.026650768 -0.01384776 0.050250776
0003f0 7d c2 09 3e ad e9 a7 3c 1d 0b 6b bc 63 f5 1a 3c
       0.13453098 0.020497167 -0.014345911 0.009457919

conv1.bias f4 [64]
000000 1c 22 ae 3d 09 6b d9 bc a9 2e 92 3d d9 41 e7 3c
       0.085025996 -0.026540296 0.07137806 0.02822964
000010 79 a6 90 3d 74 2b e2 3d 86 98 20 bd 7b 75 ea 3d
       0.07063002 0.11043444 -0.039207958 0.11448189
000020 51 55 ad 3d f1 f4 53 bd 74 7e fe 3c 63 4a a1 bd
       0.084635384 -0.051747266 0.031066157 -0.07875516
000030 ea bf a9 3d a3 26 cd 3c 72 30 46 bd b3 b4 ca 3c
       0.08288558 0.025042837 -0.048386045 0.024744367
000040 59 cd ba bc f4 ac d7 3d 08 b1 d9 3d 0e e3 4f 3d
       -0.022802996 0.10531035 0.10629469 0.050753646
000050 23 57 cf 3d 1c ef 34 3d 8c 66 d4 3d c5 d0 ea bb
       0.10124042 0.044173345 0.10371122 -0.0071660005
000060 1c 3e e1 3c 64 85 d3 bc 05 1f 7d bb 05 78 d3 bc
       0.027495436 -0.025820442 -0.0038623225 -0.025814066
000070 76 ca 57 bd c4 8b a1 3d 59 e5 6c 3d fe a9 08 bd
       -0.052683316 0.07887986 0.05783591 -0.033365242
000080 88 4f 95 bd dc ff a1 3d ba 49 b8 bd 42 b1 20 3c
       -0.0729056 0.079101294 -0.08998437 0.009807887
000090 6b e9 aa bd 09 c5 ba 3d 8e 6e d5 3d ce a8 a8 bd
       -0.08345302 0.09119613 0.10421477 -0.08235322
0000a0 c7 56 9a bd 2f c5 27 bd f7 ed 85 3c 12 97 63 bd
       -0.07536083 -0.040959533 0.016348822 -0.055563994
0000b0 91 16 d8 3c ee 33 d0 bc c7 f5 f2 3c a4 da 1f bd
       0.026377948 -0.025415387 0.029658211 -0.03902687
0000c0 e1 02 37 3d 2c 46 86 bd 80 7e 0c 3b 02 d1 d7 3d
       0.04468048 -0.06556353 0.0021437705 0.10537912
0000d0 bb 6e 45 bd db b7 aa 3d b1 c8 9b 3d bb 43 2e bd
       -0.048201304 0.08335849 0.07606638 -0.04254506
0000e0 a7 19 4c 3d 85 32 87 bd 36 74 bd 3c 2c 6d 08 3d
       0.04982915 -0.06601433 0.023126703 0.03330724
0000f0 a0 68 eb 3d 1b 55 87 38 d3 18 5a bd 77 f7 51 bd
       0.11494565 6.453154e-05 -0.05324633 -0.05126139

conv2.weight f4 [32, 64, 1, 1]
000000 ff 30 eb bd 6a 53 76 3d f4 39 c8 bd 44 36 a5 bd
       -0.11483955 0.060138144 -0.09776679 -0.08066991
000010 a4 30 4c bd 48 0f ee 3c 00 89 4b bc 4e 20 a8 bd
       -0.049851075 0.029060021 -0.0124228 -0.08209287
000020 8a ed 11 bd 68 f2 f3 bc 68 e9 81 bd f3 03 59 3d
       -0.035626926 -0.029778674 -0.06343347 0.052982282
000030 98 d3 b2 3b 8d a1 85 bd f9 a1 3d 3e 93 41 c3 3d
       0.005457353 -0.06524954 0.18518819 0.09533992
000040 a9 80 f5 bc 80 f3 f5 ba 03 97 b2 3c d8 28 f1 bb
       -0.029968577 -0.0018764585 0.021800524 -0.0073596053
000050 76 bf a0 bd 54 8f db 3d 96 c9 7f 3d 6a ef 0a be
       -0.07849018 0.10720697 0.062448107 -0.13567892
000060 fd 04 bf bd ae 11 03 3e 41 45 7f bc 89 e9 7f bc
       -0.09327123 0.12799713 -0.015580476 -0.015619644
000070 02 cc b6 3d a4 49 0f 3d 36 b8 4a 3d ac d8 9f 3d
       0.0892563 0.03498234 0.049492083 0.07804999
000080 d8 33 58 bd c6 db c3 3d 94 40 a7 bd 7c ce 87 bd
       -0.052783817 0.09563403 -0.08166614 -0.06631181
000090 54 4a e2 3c 09 5a 01 bc 66 12 a6 3d 66 d9 dc bc
       0.027623333 -0.007895001 0.08108978 -0.026959132
0000a0 25 d4 7a 3d ca fa d7 bc 2a 07 cb 3d 60 55 06 bc
       0.061237473 -0.026364703 0.09913476 -0.008199066
0000b0 96 61 43 bd 1a 90 cd 3d 9c 40 03 3e 09 1b 04 3e
       -0.047700487 0.10037251 0.12817615 0.12900938
0000c0 a3 de d2 bd 06 d4 64 bd db 52 35 bc 59 85 2d bd
       -0.10296371 -0.055866264 -0.011067118 -0.0423635
0000d0 05 a9 9c 3d 66 37 81 3d d9 5b 28 bd e2 c9 47 3c
       0.076494254 0.063093945 -0.041103218 0.012194129
0000e0 b7 b6 33 bd 9e ad e9 3d ca cf 8b 3d ed 43 40 bd
       -0.043875422 0.11410068 0.06826742 -0.04693978
0000f0 73 c0 0e be 71 9c 18 3d 14 50 0f bb 2c bb 8e bd
       -0.13940601 0.03725857 -0.0021867799 -0.06969294
000100 52 06 05 be 14 64 a8 b9 72 a0 4b bd 11 ec 9d bd
       -0.12990692 -0.0003211802 -0.04971356 -0.07711042
000110 0d b2 52 3c 39 51 da 3d 99 5e c2 3d b4 f2 71 3d
       0.012859833 0.10660023 0.09490699 0.05906935
000120 71 85 db bd 5c 45 80 3d 8c b3 60 3d f8 a0 03 3d
       -0.10718811 0.06263229 0.05485873 0.032135934
000130 df 62 62 bd 80 55 84 bc 0b db a1 bd 0f 41 14 bd
       -0.055270072 -0.01615405 -0.07903107 -0.036194857
000140 28 16 00 bd ca 6b c3 bc 7e 87 08 be 64 a2 eb 3c
       -0.03127113 -0.023855109 -0.13332936 0.028763957
000150 d1 78 eb bd a0 e2 d5 bd 41 3c 1e 3d b1 de d9 bd
       -0.11497653 -0.10443616 0.03863168 -0.10638178
000160 eb 45 e6 3d 60 78 e3 3d e9 c0 48 bd 28 14 0d bd
       0.112438045 0.11106944 -0.0490121 -0.03444305
000170 35 82 d4 bd 54 93 13 bc 6f e4 14 3c 8d 2b 9b bd
       -0.103763975 -0.009007294 0.009087666 -0.07576666
000180 0e bb 03 3d 64 65 a6 bc e6 0b 4b bd 4f 2b 67 bc
       0.03216081 -0.020312019 -0.049571894 -0.014109447
000190 df 1c 09 be 00 1b cb bd 67 62 47 3b 48 19 dd 3d
       -0.1338992 -0.09917259 0.0030423643 0.10795838
0001a0 e1 81 c0 bd b7 50 9d 3d ae 22 b2 3b 48 47 5c bd
       -0.093997724 0.07681411 0.005436263 -0.053778917
0001b0 87 82 e5 b9 1d dc 43 3d 5c fe 14 3b 25 e5 c8 3d
       -0.00043775534 0.04781734 0.0022734618 0.09809331
0001c0 2c 5c 05 bd af 44 c7 bd a2 c6 cd 3d 74 49 29 bd
       -0.032558605 -0.09729897 0.10047652 -0.041329816
0001d0 25 23 88 3d 6d 19 92 3d 18 57 4b 3c 3d 75 e8 bd
       0.06647328 0.07133756 0.0124109015 -0.113504864
0001e0 ff c5 01 be e8 c1 3d 3d b9 24 8b 3c 0b 78 80 3d
       -0.12673186 0.0463275 0.016985284 0.062728964
0001f0 74 3f e9 bd f5 ef 35 bd 42 7a c3 3d e6 c6 56 3d
       -0.11389056 -0.044418294 0.09544803 0.052435778
000200 c5 fb 1c 3e 33 3a 09 3e 76 6d 97 bc bb 85 02 be
       0.15330417 0.13401107 -0.018484812 -0.12746327
000210 f2 31 83 bd 66 3d 6f 3d af 7f 98 3c 5a d7 6d 3c
       -0.06406011 0.058408163 0.018615572 0.014516676
000220 9b 80 10 3d 88 63 c3 3d 35 48 a9 3d 33 1a cb 3d
       0.035278898 0.095404685 0.082657255 0.099171065
000230 ba 30 bd bc 54 81 c7 3d 57 ba d1 3b 47 4d 26 bd
       -0.023094524 0.09741464 0.0064003873 -0.04060104
000240 5d f6 84 bc 8c da 6b bd 05 7f 04 3e 6f 3e 06 3b
       -0.016230756 -0.05758147 0.12939079 0.002048399
000250 2e 75 3e 3d c6 12 91 3c 40 86 ba 3b 5e 24 d3 bd
       0.04649847 0.017709147 0.0056922734 -0.10309671
000260 6d 9d 51 bb 14 f5 cc bd ff 30 53 bd 1f d4 e5 3d
       -0.0031984702 -0.100076824 -0.0515604 0.112220995
000270 9f 4c dd bd 14 8b 23 3d 88 ee 09 3d cd 98 13 bd
       -0.1080563 0.039927557 0.033674747 -0.036034394
000280 6a d0 34 3d 04 df 8f 3d 62 fe d9 3d 4b 12 21 3d
       0.04414407 0.07024959 0.10644223 0.039324086
000290 17 29 e6 3d 71 6e 7a 3c 81 de 82 3d 27 89 53 3d
       0.11238306 0.01528512 0.063900955 0.05164447
0002a0 0f 0c 09 bd b1 ab ac bd b9 ec 99 bd 56 e9 c6 3d
       -0.033458766 -0.08431185 -0.075158544 0.09712474
0002b0 f7 fb 07 3e 8b b0 15 bd 4f e4 35 bc a7 5f 42 3d
       0.1327971 -0.036545318 -0.011101796 0.047454502
0002c0 48 99 c3 bd db 96 d0 3c cf cf 9b 3d 69 34 d5 3c
       -0.095507205 0.025462558 0.07607996 0.026025968
0002d0 50 e5 7c ba 00 5c d0 3d 89 ec 04 3e d3 37 d0 bd
       -0.00096472073 0.101737976 0.12980856 -0.101668976
0002e0 dc 27 b5 3c 04 a4 a2 bd 23 e7 ac 3d 43 76 f7 3d
       0.022113733 -0.0794144 0.08442523 0.120831035
0002f0 53 9c 08 bd 6c fc 13 3d 24 19 3f bd 5f ff 22 bd
       -0.033352207 0.0361294 -0.046654835 -0.039794322
000300 3c 85 62 3c 45 3f 5a bc d8 00 0e 3e 6f e7 ea bd
       0.013825711 -0.013320749 0.1386751 -0.11469924
000310 55 16 74 3d 07 27 ca bd 37 c0 d4 3d 99 b6 f1 3d
       0.05959161 -0.09870725 0.103882246 0.11802406
000320 24 37 a5 bd 07 9e 2a bc 83 2d 25 3d 2a e0 c1 bd
       -0.08067158 -0.010413653 0.040326606 -0.09466584
000330 c4 ba fd bd 7b 76 81 3d ad ea 57 3e 0c 4a f4 bc
       -0.12389138 0.063214265 0.21085615 -0.029820465
000340 6c 93 b5 3b 1f 58 e6 bd a8 96 dc bd b4 72 01 3e
       0.0055412557 -0.112472765 -0.10770923 0.12641412
000350 23 6a e9 3d 9d 2a bc bc 4f c4 34 bd 78 ed 41 bd
       0.11397197 -0.022969538 -0.044132527 -0.04734561
000360 5a 0c 4e 3d ed 57 e1 bd 62 01 9a bd 14 42 d3 bc
       0.050304748 -0.11003099 -0.07519795 -0.025788344
000370 b7 e6 49 bd ed c2 56 3c 1b d2 d2 3d ba 35 cd 3d
       -0.049292292 0.013107997 0.10293981 0.10020013
000380 61 b4 12 be 6d 3d ed 3d da ae e7 3d ec da 5f 3d
       -0.14326622 0.11583982 0.11312647 0.05465214
000390 45 6a 93 3d 77 36 67 3d eb 38 ed 3d 36 c3 db bd
       0.07198004 0.056448426 0.11583122 -0.10730593
0003a0 7e 98 02 bd be b9 7e bd 85 83 4e bc 52 04 aa bd
       -0.03188371 -0.062188856 -0.012604599 -0.08301605
0003b0 a1 f9 3f be 3d 8e a8 bd ff 8c 2a bc 87 fa f1 3d
       -0.1874757 -0.08230255 -0.010409593 0.118153624
0003c0 1d ae bf 3d 79 56 69 3d 5a 2c 73 bd 43 4e 8a bd
       0.09359381 0.056967232 -0.05936847 -0.067532085
0003d0 d0 b1 94 3c 82 23 ce bd 1d c9 81 3d 4a c7 06 3d
       0.018151194 -0.10065366 0.063371874 0.0329049
0003e0 e3 7b 40 3d 07 8b 8b bc 26 28 0a 3e 00 3d 95 3c
       0.046993148 -0.017034067 0.13491878 0.018217564
0003f0 be 6d 18 be f6 41 3e 3e 5f 0c 00 3e 81 e0 ad bd
       -0.14885613 0.1857985 0.12504719 -0.08490086

conv2.bias f4 [32]
000000 1e b0 9e 3d 96 ca 76 bd 36 5f b1 3d ae e5 f4 3d
       0.077484354 -0.060251795 0.08660738 0.119578704
000010 ef 8b 82 3d 81 44 bf 3d ed 3b 76 bd 59 18 e4 3d
       0.063743465 0.09339238 -0.060115743 0.111374564
000020 3f a6 86 bd e9 12 9e 3d 78 a7 6d 3d 9d 7d c1 3b
       -0.06574678 0.077184506 0.05802104 0.005904867
000030 41 40 d2 3c ab 25 01 be 97 b1 fb 3d 1b e6 ad bc
       0.025665404 -0.12612025 0.12289732 -0.021227887
000040 5a 77 da 3d 32 9a 3d bc db 4f 08 bd b9 e4 b4 3d
       0.10667296 -0.011572408 -0.03327928 0.08832688
000050 2e d4 81 3c 13 c6 85 bd f8 c9 c6 3c 41 4d 06 be
       0.015848245 -0.0653192 0.024266228 -0.13115408
000060 45 53 8a bd e5 5b 6e bd f4 cd 85 3c f6 ae a5 bd
       -0.06754164 -0.058193106 0.016333558 -0.08090012
000070 b9 31 7f bb ce c4 a9 bd d5 32 eb bd 5a e3 79 bc
       -0.003893955 -0.08289491 -0.11484305 -0.015251959

conv3.weight f4 [1, 32, 5, 5]
000000 13 f0 98 3b 84 56 d6 3c f6 04 2d bc 2f bb 0e 3d
       0.004667291 0.0261643 -0.010560265 0.03484648
000010 52 9a c5 bc 72 e9 52 3c ff 70 fd bc 0c 7f 09 3d
       -0.024121437 0.0128730405 -0.03093767 0.033568427
000020 ab 4d 45 bc 46 02 ab 3c c1 22 3a 3b ba 2e 52 bc
       -0.012042443 0.020875107 0.0028402063 -0.012828523
000030 25 49 cf bb c8 5f 3b bc 6b 39 bf 3c 96 de d9 3c
       -0.006325858 -0.01143641 0.023342809 0.026595395
000040 1f 04 0e 3d 69 f1 da bb 7d 43 18 bc 73 a3 86 bc
       0.0346719 -0.0066816104 -0.009293434 -0.01643536
000050 17 cb e4 ba 5e 1a 1b 3c b8 4c ac ba 84 19 b1 bc
       -0.0017455545 0.009466736 -0.0013145423 -0.021618612
000060 41 08 78 3b 3d 10 2e 38 91 d4 de bc 2d 9c 0b bc
       0.0037846717 4.1499956e-05 -0.027200969 -0.008521122
000070 1e 4f af b9 6a e9 07 bd de e1 c4 3b 29 b4 30 3c
       -0.00033437548 -0.033181585 0.006008371 0.010785141
000080 b8 bb 11 bb 24 a0 77 bb 20 16 03 3b 0d d0 25 3c
       -0.0022237133 -0.003778466 0.0020002201 0.010120404
000090 34 d3 81 bc d5 6f 0f bb 69 77 af 3c 4f d4 16 bc
       -0.01584778 -0.0021886725 0.021419244 -0.009205892
0000a0 35 f7 8c 3a a1 66 01 bd 09 50 d3 bc 15 b9 14 bb
       0.0010754826 -0.031592015 -0.025795 -0.0022693325
0000b0 fc e4 34 bc 4b 10 11 3d f3 a3 d5 bb 11 b9 e8 bc
       -0.011040922 0.03541593 -0.0065197884 -0.028408559
0000c0 f8 04 00 3d c3 c5 b1 bc b8 fd f5 3c bb 15 32 bb
       0.03125474 -0.021700745 0.03002821 -0.0027173597
0000d0 7f 63 10 3c 6e 07 08 bd ea 4e 08 3d ef a5 2c 3a
       0.008812784 -0.03321021 0.033278383 0.00065860053
0000e0 7e 62 87 bc ee ca bc bc e8 31 06 3c 28 a8 02 bd
       -0.016526457 -0.023045983 0.0081906095 -0.031898648
0000f0 c8 f9 e3 3c 29 6e ad 3c ba d2 08 3d 94 8e 0a 3d
       0.027829066 0.021170693 0.03340409 0.03382738
000100 c8 a5 99 bc 01 b0 0a bc 9d 10 bc 3c 04 8f cc 3c
       -0.018755808 -0.008464814 0.02295714 0.024970539
000110 55 b5 15 3d e0 fb 53 bc b5 c0 c3 3b 88 ea 02 b9
       0.036549885 -0.01293847 0.0059739 -0.00012485136
000120 53 79 b8 3c 6f c5 7e bc 2f 44 09 3d fa 93 1e bc
       0.02251879 -0.0155500015 0.03351229 -0.009678835
000130 58 d2 97 3c a3 38 e6 3c f8 b5 0b bd f1 da ff 3b
       0.018532917 0.028103178 -0.034109086 0.0078080823
000140 e4 10 c0 bc af a4 93 3c ca 1e 02 3d 18 0d 23 bc
       -0.023445554 0.018022863 0.031767644 -0.009951852
000150 a5 af b9 bc 5a bd 8a bc 04 ed eb 3c 18 64 81 bb
       -0.022666762 -0.016935993 0.028799541 -0.0039486997
000160 de 98 ca bc cd f4 f9 3c 98 36 c4 3c 84 57 38 bb
       -0.024731096 0.030512238 0.023951814 -0.0028128335
000170 4e 60 b8 3b df 8b bb 3b b5 96 11 3d 26 fd ad 3c
       0.005626715 0.005723461 0.035544116 0.021238875
000180 ee c6 f0 3b 85 27 17 3b ca 9f 50 3c 26 0f cb bc
       0.007347933 0.0023064327 0.012733409 -0.024787497
000190 ed e0 a1 3c b9 d0 7d 3c bd a9 b2 3b ab f7 b1 3c
       0.019760573 0.015491658 0.0054523633 0.021724543
0001a0 5e e8 b9 bb 85 ed 01 bd 4d 97 eb bc 17 41 0e 3d
       -0.0056734523 -0.031720657 -0.02875867 0.034730043
0001b0 02 e4 2a bc e8 e5 c9 bc 4d f4 11 3d 59 9c c3 bc
       -0.010430338 -0.02464576 0.035633374 -0.023878263
0001c0 fc 7b fa 3c e6 dd 07 3d 93 64 3c bb 76 dd ad 3c
       0.030576698 0.033170603 -0.002874647 0.021223765
0001d0 f3 69 e3 3c 49 56 02 bd 38 34 90 bc 3b 1d c1 3b
       0.027760481 -0.03182057 -0.017603025 0.005893377
0001e0 4d 74 3e 3c f4 f8 c0 bc b0 b4 e3 bc 3a ce 0f 3d
       0.011624408 -0.02355621 -0.02779612 0.035108782
0001f0 c4 d7 7c bc 27 9e 0b bd 08 1c 84 3c da 33 87 bc
       -0.015432302 -0.034086373 0.016126648 -0.016504217
000200 02 b6 44 bc 09 d3 40 bc ac 1a 09 3d 19 fe 6e 3c
       -0.012006285 -0.011769065 0.033472702 0.014586949
000210 fe f4 16 3d b6 4b 3c bc a2 12 dc 3c 03 90 d9 bc
       0.036854737 -0.01149266 0.026864354 -0.026557928
000220 7c 3e c3 3c 0d 03 9e 3b 1b 80 72 3b b9 d2 05 3d
       0.023833506 0.004822141 0.0037002626 0.032671664
000230 8d 9d 60 3b 2a 95 64 bc 7e 4c 8d bc 55 8b e1 3b
       0.0034273595 -0.013951579 -0.017248388 0.0068830648
000240 4a f5 29 bc ac b0 93 3c 14 2d ee bc dd f5 b4 bc
       -0.010373423 0.01802858 -0.02907423 -0.022089893
000250 10 a9 00 3d 4a 63 4f bc d4 aa 08 bd ad ef e9 3c
       0.03141123 -0.01265795 -0.03336604 0.02855667
000260 a6 c3 1e bb 27 59 68 3b 3d 80 d3 3c d9 8b 82 3c
       -0.0024225502 0.003545353 0.025817985 0.015935825
000270 e0 ee ea bc 12 a7 65 3c e9 f0 22 3d 05 f3 5f 3b
       -0.028678358 0.014016883 0.03978053 0.003417195
000280 dd 75 04 3d 15 0f 1d 3d d9 04 b3 3c db 88 ce bc
       0.032338966 0.03834446 0.021852897 -0.025211742
000290 ca ab 19 3d 73 df 04 3d 8e eb 89 3c d6 f7 b7 3b
       0.037517346 0.03243966 0.016835954 0.005614261
0002a0 d4 5a 8f bc 4a 8d 6b 3c 7b 54 15 bc 3c 6e 18 3d
       -0.017499365 0.014376948 -0.00911438 0.037214503
0002b0 7b 09 dc bc 3d 40 68 3c 40 32 be 3b 56 df 1d 3a
       -0.02685999 0.014175472 0.00580433 0.00060223544
0002c0 0b ff 73 bb 99 e7 86 3c 24 73 ed bc da ac 12 3c
       -0.0037230875 0.016467856 -0.028985567 0.008952344
0002d0 6b 10 be bc d9 0d 41 3c 67 0e d4 ba 3d fa bb 3b
       -0.023201188 0.011783087 -0.0016178609 0.005736618
0002e0 32 08 ad 3c ef 74 5d bc a2 dd e2 bc 2e f7 73 bc
       0.021122072 -0.013516649 -0.027693573 -0.014890475
0002f0 08 29 f8 3c a1 96 e0 bc e5 02 bd 3c 4b e1 3d bc
       0.030293003 -0.027415575 0.02307267 -0.011589359
000300 43 e0 6c 3b 1d f7 83 3c 30 b6 33 bc 98 03 c2 bc
       0.0036144413 0.016109044 -0.01096873 -0.023683354
000310 62 34 53 3c 15 95 bd 3c 2b d8 72 3c 22 a8 89 39
       0.012890907 0.023142377 0.014822046 0.00026255945
000320 58 8f 56 b9 42 35 4d 3c 87 a2 85 3c f1 c0 8c bc
       -0.0002046203 0.012524905 0.01631285 -0.017181845
000330 bb ea b8 3c 5c eb cb bb 97 19 57 bc 94 83 7c bb
       0.022572866 -0.0062231254 -0.01312866 -0.0038530575
000340 67 98 ef 3b a8 b9 91 bc be a2 96 bc 47 27 e6 3c
       0.007311869 -0.017788723 -0.018388148 0.0280949
000350 52 be 20 3d f9 93 df bc b9 9a 12 3d e9 57 be bc
       0.039244004 -0.027292239 0.035792086 -0.023235278
000360 87 7f f7 3b 46 6a 1d 3d a5 c4 b6 bc 64 0f 88 bc
       0.0075530442 0.03843143 -0.022310564 -0.016608901
000370 1e 54 e0 3b a4 f6 b7 bc 7e f2 fd bb 55 b6 e3 bc
       0.006845965 -0.022456475 -0.0077498546 -0.027796904
000380 6e fe 46 3b 7f 8f bb 3c 5a d2 29 3c 7a af a6 bb
       0.0030364054 0.022895573 0.010365093 -0.0050868364
000390 ab 6b 0d 3d 46 bc ea 3c 47 cd 96 bc 72 30 ad 3c
       0.03452651 0.028654229 -0.01840843 0.021141265
0003a0 be fd e0 bb e7 4b 4c 3c 58 44 a2 3b ed e0 86 3c
       -0.006866186 0.012469268 0.004951995 0.016464675
0003b0 c2 5a 8a bc 4e a9 7f bc 0b bd 9a bc a2 b8 b0 bc
       -0.01688898 -0.01560433 -0.01888897 -0.021572415
0003c0 1d c0 6c bc 75 e0 19 3c 1b 87 39 3c 3f ce ff 3b
       -0.0144501 0.009391894 0.011323716 0.007806569
0003d0 ca 09 e1 3c 72 75 e2 3c ca da f0 3c 81 54 be 3c
       0.027470488 0.027643893 0.029401202 0.023233654
0003e0 0f d3 52 3a 69 fb 25 3c 3e 25 89 bc d2 64 00 3b
       0.00080423144 0.010130742 -0.016741391 0.0019591344
0003f0 c2 90 9b 3b 8c d3 dd bc b1 27 fb 3c df 61 de bb
       0.004747481 -0.027078412 0.030658575 -0.0067865695
